lib/assets/text_classification_model.tflite (tflite, 644356 bytes, 5 tensors)

arith.constant f4 [3, 16]
-0.7256509 -0.22604701 -0.7457509 1.1497321 -0.6681233 0.8884431 -0.27868566 -0.29561004
0.1365144 0.09303574 0.7222655 0.28416497 1.1472955 -0.9265222 0.91765916 -0.97752327
-0.9458158 -0.44237837 -0.8380067 -0.6990191 -0.7462453 -1.076882 -0.33107984 0.105532855
-0.47978276 -0.008042652 0.32262886 -0.2342373 -1.2751424 -0.94684166 -1.2325308 0.94421136
0.7787314 0.8418544 0.8364654 -0.33285028 0.8107244 -0.53387284 0.2685265 0.18312734
0.111744724 -1.0419356 -0.6900245 -0.38227573 0.28145564 0.61561775 0.17703213 0.09248597
00000000: 42c4 39bf de78 67be 88e9 3ebf 6c2a 933f
00000010: 210a 2bbf 0271 633f e3af 8ebe 335a 97be
00000020: 6eca 0b3e 8689 be3d 64e6 383f 127e 913e
00000030: 94da 923f 8f30 6dbf b6eb 6a3f f73e 7abf
00000040: fc20 72bf 6b7f e2be 9b87 56bf eaf2 32bf
00000050: ef09 3fbf 45d7 89bf 4c83 a9be 9c21 d83d
00000060: 16a6 f5be 54c5 03bc 9c2f a53e e7db 6fbe
00000070: de37 a3bf 3764 72bf 92c3 9dbf d6b7 713f
00000080: f15a 473f c583 573f 9922 563f 5a6b aabe
00000090: a28b 4f3f e4ab 08bf 4e7c 893e bc85 3b3e
000000a0: 6bda e43d 255e 85bf 72a5 30bf a5b9 c3be
000000b0: f41a 903e 2099 1d3f e947 353e 4969 bd3d

arith.constant1 f4 [16, 16]
0.60341877 -0.38557756 0.83947265 -0.66075635 0.81629527 -0.61847204 0.14047477 -0.56471604
-0.34834126 -0.37788185 0.97775143 -0.92392135 0.769699 -0.78298384 0.5301227 0.56296986
0.471378 -0.2557851 0.9512318 -0.7789342 0.66336423 -0.7427278 0.4422447 -0.3548444
-0.8627786 -0.45306376 0.66852975 -0.90338945 0.6249466 -0.6330327 0.020331798 0.45535514
0.6847843 -0.47415236 0.8993897 -0.027485378 0.85402024 -0.42031482 0.33480886 -0.18878913
-0.36637324 -0.35734016 0.9175543 -0.9720055 0.36009097 -0.61147034 0.054003313 0.5692791
-0.68474364 0.60691994 0.1948036 -0.8228252 -0.48964033 0.08938031 -0.4740143 0.9405116
0.26456136 0.7316369 0.047046643 0.4302081 0.403917 -0.059395492 -0.7085859 0.49341497
0.33308148 -0.417696 0.58796203 -0.103941984 0.6781043 -0.6928731 0.06154047 -0.7622548
-0.50330496 -0.42282712 0.6116851 -0.96436 0.7345984 -0.95362765 -0.005000588 0.25693837
-0.714516 0.7703977 0.042764463 -0.90138763 -0.57441723 -0.29439685 -0.8467588 1.0299577
0.6869677 0.67599803 0.37712696 0.056586087 0.6617999 -0.09979588 -0.85444254 0.33846867
-0.35652694 -0.24805364 0.067529455 0.37054658 -0.035282593 0.32605577 0.0058538616 -0.39190155
-0.13535932 -0.18471728 -0.10246194 -0.0760851 0.0034789438 0.16106424 -0.40429288 0.28616717
0.027844304 0.41671523 0.18077363 0.40606523 -0.32330778 -0.13717417 0.39242494 -0.3611875
0.2843863 -0.06982628 0.36683872 0.3686002 -0.26064736 -0.08656534 -0.17041932 0.35184258
-0.34703934 -0.17187922 0.21446553 0.37534508 0.1596046 0.27002814 0.074481495 -0.13153641
-0.25520235 -0.10974801 -0.3284408 0.00816521 -0.120276384 -0.14330253 0.07561156 0.35883498
-0.30054536 0.6150439 -0.08157462 -0.20881064 -0.34127337 -0.14287174 -0.6218286 0.5435099
0.332534 0.05396031 -0.85060066 0.92879665 -0.89525366 0.88464886 -0.3772402 0.23408155
-0.46954018 0.0529419 -0.27106482 -0.7854709 -0.89192784 -0.14627807 -0.8482378 0.11975897
0.8746107 0.74396825 -0.4018567 0.73140097 -0.8401199 0.8444197 -0.70668507 0.48878163
0.31071663 -0.18596448 0.33805138 0.020795729 0.15057015 0.26720893 0.2802968 0.14966148
-0.32383558 -0.43486446 -0.27703154 -0.19419062 0.119303286 -0.23254317 0.23166937 0.2634983
-0.66765475 0.7237621 0.42022264 -0.73617256 0.42340568 -0.15129058 -0.5285767 0.4704741
0.27178764 0.41434437 0.781702 -0.18699059 0.38402826 -0.12890592 -0.78899384 0.124197915
0.79527044 -0.18443635 0.2721859 -0.46598935 0.15088159 -0.5510287 -0.01880304 -0.120923586
-0.6669622 -0.15655638 0.78546745 -0.6328861 0.6293837 -0.73643786 0.2201004 0.0076839044
-0.27082387 0.36015853 0.45672387 -0.6892904 -0.32290435 -0.27743137 -0.39923817 0.58911085
0.12370395 0.16683598 0.6333416 -0.15811692 0.5462654 -0.21786556 -0.81012565 0.65985394
0.92376715 -0.77996564 -1.0280672 0.66653895 0.84286577 -0.7860686 -0.14428075 -0.89241564
-0.6055393 -0.100569084 -0.31218332 -0.0793035 -0.72584856 0.4249299 0.40495667 0.099842355
00000000: a779 1a3f 6c6a c5be aee7 563f 5427 29bf
00000010: baf8 503f 2f54 1ebf 9ed8 0f3e 3b91 10bf
00000020: c959 b2be bb79 c1be eb4d 7a3f 1c86 6cbf
00000030: fe0a 453f a171 48bf 1fb6 073f cb1e 103f
00000040: 7558 f13e 44f6 82be ed83 733f 3b68 47bf
00000050: 3dd2 293f 6923 3ebf e66d e23e 2aae b5be
00000060: 0fdf 5cbf f9f7 e7be c424 2b3f 8844 67bf
00000070: 80fc 1f3f 6e0e 22bf df8e a63c 4f24 e93e
00000080: 064e 2f3f 19c4 f2be 673e 663f 0429 e1bc
00000090: 12a1 5a3f 8133 d7be 116c ab3e f051 41be
000000a0: 4695 bbbe 4af5 b6be d7e4 6a3f 5ad5 78bf
000000b0: d85d b83e 5289 1cbf 9432 5d3d 46bc 113f
000000c0: 5c4b 2fbf 1b5f 1b3f 987a 473e aca4 52bf
000000d0: 23b2 fabe 060d b73d 01b2 f2be 5ec5 703f
000000e0: 9674 873e 8e4c 3b3f fbb3 403d 3c44 dc3e
000000f0: 36ce ce3e b048 73bd e365 35bf e3a0 fc3e
00000100: a889 aa3e 40dc d5be ae84 163f 89df d4bd
00000110: 3e98 2d3f 2260 31bf dc11 7c3d 2123 43bf
00000120: 98d8 00bf cc7c d8be 6597 1c3f 4ce0 76bf
00000130: a40e 3c3f f120 74bf f9db a3bb 6d8d 833e
00000140: 85ea 36bf c938 453f ca29 2f3d 57c1 66bf
00000150: 020d 13bf 2fbb 96be 2fc5 58bf a7d5 833f
00000160: 1ddd 2f3f 350e 2d3f c916 c13e d0c6 673d
00000170: b86b 293f c861 ccbd bfbc 5abf c44b ad3e
00000180: b38a b6be c601 7ebe e24c 8a3d 48b8 bd3e
00000190: 7b84 10bd c8f0 a63e c0d1 bf3b 52a7 c8be
000001a0: a29b 0abe 8726 3dbe 91d7 d1bd 81d2 9bbd
000001b0: fefe 633b 06ee 243e 7aff cebe 8184 923e
000001c0: bd19 e43c b35b d53e b91c 393e c8e7 cf3e
000001d0: 9988 a5be 6377 0cbe eceb c83e 91ed b8be
000001e0: 159b 913e 1501 8fbd 49d2 bb3e 2ab9 bc3e
000001f0: 9273 85be 2b49 b1bd 6782 2ebe b624 b43e
00000200: 24af b1be 1b01 30be da9c 5b3e 3b2d c03e
00000210: 636f 233e 2141 8a3e c189 983d 7bb1 06be
00000220: e2a9 82be 91c3 e0bd 6429 a8be 5fc7 053c
00000230: 7753 f6bd e6bd 12be 3cda 9a3d 38b9 b73e
00000240: 15e1 99be 8473 1d3f 9810 a7bd 75d2 55be
00000250: 62bb aebe f84c 12be 2930 1fbf 7723 0b3f
00000260: e541 aa3e 7c05 5d3d f7c0 59bf 9ec5 6d3f
00000270: 582f 65bf 5978 623f a125 c1be 13b3 6f3e
00000280: 9267 f0be 9bd9 583d 02c9 8abe 9f14 49bf
00000290: 6255 64bf ebc9 15be 1d26 59bf 3144 f53d
000002a0: 7de6 5f3f b474 3e3f 29c0 cdbe 183d 3b3f
000002b0: 1912 57bf e42b 583f 50e9 34bf 9641 fa3e
000002c0: 4016 9f3e 796d 3ebe 1215 ad3e ce5b aa3c
000002d0: 102f 1a3e 9ccf 883e 1083 8f3e dc40 193e
000002e0: c7cd a5be 8ea6 debe 14d7 8dbe e8d9 46be
000002f0: 4855 f43d cc1f 6ebe bc3a 6d3e 40e9 863e
00000300: 6ceb 2abf 7948 393f 6c27 d73e ce75 3cbf
00000310: a1c8 d83e ebeb 1abe cd50 07bf fbe1 f03e
00000320: c027 8b3e f224 d43e 9f1d 483f 767a 3fbe
00000330: 5a9f c43e eaff 03be 80fb 49bf 7a5b fe3d
00000340: d896 4b3f e2dc 3cbe f35b 8b3e 2896 eebe
00000350: b480 1a3e 3810 0dbf d508 9abc c9a6 f7bd
00000360: 09be 2abf 5150 20be 6514 493f d304 22bf
00000370: 4a1f 213f 3187 3cbf 0062 613e 43c9 fb3b
00000380: 6da9 8abe b366 b83e b6d7 e93e 5675 30bf
00000390: b853 a5be 7c0b 8ebe f268 ccbe f8cf 163f
000003a0: 7f58 fd3d 0dd7 2a3e ad22 223f 67e9 21be
000003b0: 0dd8 0b3f 2618 5fbe 6564 4fbf 30ec 283f
000003c0: 017c 6c3f d4ab 47bf b597 83bf 4ca2 2a3f
000003d0: 0dc6 573f cb3b 49bf 55be 13be 5a75 64bf
000003e0: a004 1bbf 2af7 cdbd 7ed6 9fbe e069 a2bd
000003f0: 36d1 39bf 6990 d93e 7b56 cf3e 267a cc3d

arith.constant2 f4 [10000, 16]
0.24946572 -0.21088691 -0.5787611 -0.2364185 0.47246933 -1.1135975 -0.8280257 -0.17414424
-0.23334631 0.46881032 0.12454321 -0.023792783 -0.44583762 0.29243416 -0.34400576 0.91158676
0.49664277 -0.67968136 -1.2480974 1.0749866 -0.087502345 0.49125776 0.6071941 -0.7225661
-0.21706675 -0.34063545 -0.9769531 0.58715713 -1.1879408 0.9659455 0.83856416 -1.0374568
0.3134315 -0.54914284 -0.923029 0.85798407 -0.09992337 0.42753884 0.4040709 -0.52466065
-0.1278809 -0.24811651 -0.7953042 0.52532023 -0.8708838 0.72250086 0.64084136 -0.789288
0.41931272 -0.5591624 -0.9982911 0.78127015 -0.037911475 0.4272789 0.5036106 -0.63347816
-0.12935817 -0.32548225 -0.72182596 0.47652435 -0.91729885 0.75446725 0.6411972 -0.8355091
0.331993 -0.53056574 -1.0344394 0.77520597 -0.10348614 0.5076593 0.34255522 -0.47060692
-0.068245165 -0.22651869 -0.7716691 0.57768315 -0.91157347 0.83488774 0.5326907 -0.77862287
-0.51050216 0.5186834 -0.15480232 -0.33140305 -0.5447877 0.37592548 -0.49337894 0.4808155
0.6079245 0.53416467 -0.3884614 0.55079633 -0.20287973 0.5126572 -0.49444315 0.21179327
0.77932835 -0.585465 0.902451 -0.17687255 0.83774066 -0.7990739 0.5591628 -0.6086617
-0.8829891 -0.7073412 0.9323631 -0.83938605 0.87007844 -0.9542116 0.4212693 0.69475156
-0.18221748 0.059651576 -0.53568393 0.13512838 -0.38256162 0.4530799 -0.17962596 0.08652951
0.37790853 0.25552133 -0.58145255 0.5116322 -0.547021 0.6643557 -0.061785165 -0.323232
-0.25089052 0.13720976 -0.6348492 0.18198955 -0.49819103 0.5077088 -0.116632774 0.08114728
0.39936998 0.26396406 -0.67211884 0.62756956 -0.56583595 0.71489036 -0.050039504 -0.27384087
0.53709906 -0.7283696 -0.9595868 0.95636386 0.04178982 0.4339858 0.5561752 -0.74847203
-0.25344038 -0.45613465 -0.79063165 0.49128836 -0.9233127 0.754339 0.8033615 -0.8663013
0.20067286 -0.33625582 -0.7710901 0.6123037 -0.10462387 0.30772525 0.32714775 -0.45140997
-0.052489575 -0.18032712 -0.63121974 0.4269131 -0.7738661 0.64651525 0.46844214 -0.66049784
0.3298378 -0.5194087 -0.93663186 0.81514066 -0.10514471 0.4697744 0.42956293 -0.5854678
-0.11272116 -0.24036872 -0.8520126 0.5613205 -0.9500799 0.8222252 0.68396115 -0.7936616
0.88205826 -0.8171527 0.9189753 -0.13200022 0.98284554 -0.8591914 0.70264727 -0.83504486
-1.0437572 -0.82683635 0.9694659 -0.94814396 0.97592145 -0.9522337 0.6031468 0.7964654
0.84283036 -0.682803 0.949986 -0.14617746 0.8833516 -0.88454586 0.59638935 -0.6684744
-0.9490677 -0.7820335 0.93821555 -0.93002653 0.9248834 -0.9824544 0.5467579 0.75884163
0.6645044 -0.69227535 0.0067832805 0.40670726 0.5438998 -0.33492115 0.6010645 -0.7069449
-0.66844505 -0.5850816 0.23644222 -0.4126428 0.0073758243 -0.2663752 0.6052517 -0.11907256
0.67252386 -0.75186884 0.031175543 0.44536772 0.5262376 -0.30929357 0.64093107 -0.7632673
-0.661792 -0.5923739 0.17921014 -0.42084122 0.042385302 -0.28345317 0.6232536 -0.15090944
00000000: f173 7f3e bdf2 57be b029 14bf b117 72be
00000010: 80e7 f13e 5d8a 8ebf 7ef9 53bf de52 32be
00000020: 56f2 6ebe e807 f03e 8310 ff3d 15e9 c2bc
00000030: d444 e4be eeb9 953e 8621 b0be c05d 693f
00000040: f647 fe3e 99ff 2dbf a8c1 9fbf 2999 893f
00000050: 6e34 b3bd 2386 fb3e 1371 1b3f 18fa 38bf
00000060: bf46 5ebe c567 aebe 9919 7abf ee4f 163f
00000070: 720e 98bf 3448 773f 24ac 563f 62cb 84bf
00000080: 187a a03e a094 0cbf a14b 6cbf d8a4 5b3f
00000090: a0a4 ccbd 5fe6 da3e 62e2 ce3e 2950 06bf
000000a0: 36f3 02be 4112 7ebe 0e99 4bbf 637b 063f
000000b0: 3ef2 5ebf d1f5 383f 2e0e 243f c70e 4abf
000000c0: 28b0 d63e 4425 0fbf 0190 7fbf 5201 483f
000000d0: 1049 1bbd 4dc4 da3e a0ec 003f a02b 22bf
000000e0: 7876 04be 9ca5 a6be 96c9 38bf 00fb f33e
000000f0: 19d4 6abf c424 413f 8025 243f ede3 55bf
00000100: fdfa a93e 28d3 07bf 8368 84bf e673 463f
00000110: 8bf0 d3bd f6f5 013f 6663 af3e 64f3 f0be
00000120: 1fc4 8bbd 84f4 67be 1b8c 45bf 0be3 133f
00000130: e15c 69bf 34bb 553f 6b5e 083f d453 47bf
00000140: 45b0 02bf 6fc8 043f 8084 1ebe a9ad a9be
00000150: 3577 0bbf 4e79 c03e 2a9c fcbe 732d f63e
00000160: f1a0 1b3f 04bf 083f 6ae4 c6be fd00 0d3f
00000170: b4bf 4fbe 813d 033f a727 fdbe 56e0 583e
00000180: 1082 473f 09e1 15bf 0707 673f 141e 35be
00000190: 2c76 563f 1b90 4cbf 4b25 0f3f 41d1 1bbf
000001a0: 930b 62bf 5014 35bf 59af 6e3f 01e2 56bf
000001b0: 76bd 5e3f 3647 74bf 9cb0 d73e 3ddb 313f
000001c0: 3897 3abe 3655 743d 9522 09bf 185f 0a3e
000001d0: 1edf c3be 17fa e73e deef 37be 6236 b13d
000001e0: 3a7d c13e b1d3 823e 13da 14bf 54fa 023f
000001f0: 9109 0cbf 3713 2a3f 7112 7dbd aa7e a5be
00000200: b974 80be b780 0c3e 7a85 22bf 785b 3a3e
00000210: e512 ffbe 34f9 013f 2add eebd 8c30 a63d
00000220: 397a cc3e 4c26 873e fb0f 2cbf 66a8 203f
00000230: a0da 10bf 0e03 373f 39f6 4cbd df34 8cbe
00000240: 537f 093f 6e76 3abf 7ba7 75bf 43d4 743f
00000250: cd2b 2b3d 6333 de3e 7f61 0e3f dd9b 3fbf
00000260: f0c2 81be 7b8a e9be d666 4abf 268a fb3e
00000270: 395e 6cbf 5c1c 413f 19a9 4d3f ecc5 5dbf
00000280: 307d 4d3e b929 acbe 2966 45bf efbf 1c3f
00000290: 0a45 d6bd 2a8e 9d3e e97f a73e 351f e7be
000002a0: 4fff 56bd aca7 38be 9e97 21bf 5b94 da3e
000002b0: 171c 46bf 0682 253f a6d7 ef3e 6316 29bf
000002c0: 80e0 a83e f8f7 04bf 1bc7 6fbf 0fad 503f
000002d0: 1c56 d7bd 4586 f03e acef db3e 38e1 15bf
000002e0: 5ada e6bd 3823 76be 7f1d 5abf b3b2 0f3f
000002f0: 7038 73bf 5a7d 523f 1418 2f3f 682d 4bbf
00000300: 92ce 613f eb30 51bf f741 6b3f 112b 07be
00000310: c49b 7b3f f8f3 5bbf b1e0 333f 80c5 55bf
00000320: d699 85bf 8cab 53bf eb2e 783f 90b9 72bf
00000330: fdd5 793f 96c5 73bf d467 1a3f 28e5 4b3f
00000340: bbc3 573f 2dcc 2ebf 4832 733f 8baf 15be
00000350: 5523 623f 9971 62bf f9ac 183f 2321 2bbf
00000360: 1af6 72bf 5933 48bf e52e 703f 3816 6ebf
00000370: 29c5 6c3f 2282 7bbf 53f8 0b3f 7243 423f
00000380: f61c 2a3f f538 31bf 4846 de3b ef3b d03e
00000390: 043d 0b3f c97a abbe 5ddf 193f 57fa 34bf
000003a0: 371f 2bbf e8c7 15bf e91d 723e eb45 d3be
000003b0: e6b0 f13b 5562 88be c7f1 1a3f 50dc f3bd
000003c0: 862a 2c3f 7a7a 40bf da63 ff3c 3d07 e43e
000003d0: 82b7 063f ba5b 9ebe 0f14 243f 7c65 43bf
000003e0: 336b 29bf d1a5 17bf dd82 373e 8078 d7be
000003f0: 369c 2d3d c620 91be 8c8d 1f3f 0188 1abe

arith.constant3 f4 [16]
-0.022622546 0.03193902 0.00019929717 0.10857262 -0.04599379 -0.027939321 -0.038166862 -0.015703881
-0.021621129 0.21822068 0.082172304 -0.044872943 0.045520805 -0.029996494 -0.011840651 0.24892865
00000000: eb52 b9bc 7dd2 023d 6dfa 5039 525b de3d
00000010: fc63 3cbd 01e1 e4bc db54 1cbd 6da5 80bc
00000020: cb1e b1bc 3e75 5f3e f449 a83d b1cc 37bd
00000030: 0674 3a3d 35bb f5bc 4aff 41bc 27e7 7e3e

arith.constant4 f4 [3]
-0.11828562 0.23565799 -0.16847447
00000000: bb3f f2bd 5450 713e 9284 2cbe
